/Users/raehyeon/.local/share/virtualenvs/YOLO_v8_street_work_v4-Ovs4JuWx/bin/python /Users/raehyeon/Desktop/programming-practice/Deep_Learning/YOLO_v8_street_work_v4/test.py

                   from  n    params  module                                       arguments
  0                  -1  1       464  ultralytics.nn.modules.Conv                  [3, 16, 3, 2]
  1                  -1  1      4672  ultralytics.nn.modules.Conv                  [16, 32, 3, 2]
  2                  -1  1      7360  ultralytics.nn.modules.C2f                   [32, 32, 1, True]
  3                  -1  1     18560  ultralytics.nn.modules.Conv                  [32, 64, 3, 2]
  4                  -1  2     49664  ultralytics.nn.modules.C2f                   [64, 64, 2, True]
  5                  -1  1     73984  ultralytics.nn.modules.Conv                  [64, 128, 3, 2]
  6                  -1  2    197632  ultralytics.nn.modules.C2f                   [128, 128, 2, True]
  7                  -1  1    295424  ultralytics.nn.modules.Conv                  [128, 256, 3, 2]
  8                  -1  1    460288  ultralytics.nn.modules.C2f                   [256, 256, 1, True]
  9                  -1  1    164608  ultralytics.nn.modules.SPPF                  [256, 256, 5]
 10                  -1  1         0  torch.nn.modules.upsampling.Upsample         [None, 2, 'nearest']
 11             [-1, 6]  1         0  ultralytics.nn.modules.Concat                [1]
 12                  -1  1    148224  ultralytics.nn.modules.C2f                   [384, 128, 1]
 13                  -1  1         0  torch.nn.modules.upsampling.Upsample         [None, 2, 'nearest']
 14             [-1, 4]  1         0  ultralytics.nn.modules.Concat                [1]
 15                  -1  1     37248  ultralytics.nn.modules.C2f                   [192, 64, 1]
 16                  -1  1     36992  ultralytics.nn.modules.Conv                  [64, 64, 3, 2]
 17            [-1, 12]  1         0  ultralytics.nn.modules.Concat                [1]
 18                  -1  1    123648  ultralytics.nn.modules.C2f                   [192, 128, 1]
 19                  -1  1    147712  ultralytics.nn.modules.Conv                  [128, 128, 3, 2]
 20             [-1, 9]  1         0  ultralytics.nn.modules.Concat                [1]
 21                  -1  1    493056  ultralytics.nn.modules.C2f                   [384, 256, 1]
 22        [15, 18, 21]  1    897664  ultralytics.nn.modules.Detect                [80, [64, 128, 256]]
YOLOv8n summary: 225 layers, 3157200 parameters, 3157184 gradients, 8.9 GFLOPs

Ultralytics YOLOv8.0.5 ðŸš€ Python-3.10.8 torch-1.13.1 CPU
yolo/engine/trainer: task=detect, mode=train, model=None, data=data.yaml, epochs=10, patience=50, batch=16, imgsz=640, save=True, cache=False, device=None, workers=8, project=None, name=None, exist_ok=False, pretrained=False, optimizer=SGD, 
…
ght_decay=0.0005, warmup_epochs=3.0, warmup_momentum=0.8, warmup_bias_lr=0.1, box=7.5, cls=0.5, dfl=1.5, fl_gamma=0.0, label_smoothing=0.0, nbs=64, hsv_h=0.015, hsv_s=0.7, hsv_v=0.4, degrees=0.0, translate=0.1, scale=0.5, shear=0.0, perspective=0.0, flipud=0.0, fliplr=0.5, mosaic=1.0, mixup=0.0, copy_paste=0.0, cfg=None, hydra={'output_subdir': None, 'run': {'dir': '.'}}, v5loader=False, save_dir=runs/detect/train
Overriding model.yaml nc=80 with nc=8

                   from  n    params  module                                       arguments
  0                  -1  1       464  ultralytics.nn.modules.Conv                  [3, 16, 3, 2]
  1                  -1  1      4672  ultralytics.nn.modules.Conv                  [16, 32, 3, 2]
  2                  -1  1      7360  ultralytics.nn.modules.C2f                   [32, 32, 1, True]
  3                  -1  1     18560  ultralytics.nn.modules.Conv                  [32, 64, 3, 2]
  4                  -1  2     49664  ultralytics.nn.modules.C2f                   [64, 64, 2, True]
  5                  -1  1     73984  ultralytics.nn.modules.Conv                  [64, 128, 3, 2]
  6                  -1  2    197632  ultralytics.nn.modules.C2f                   [128, 128, 2, True]
  7                  -1  1    295424  ultralytics.nn.modules.Conv                  [128, 256, 3, 2]
  8                  -1  1    460288  ultralytics.nn.modules.C2f                   [256, 256, 1, True]
  9                  -1  1    164608  ultralytics.nn.modules.SPPF                  [256, 256, 5]
 10                  -1  1         0  torch.nn.modules.upsampling.Upsample         [None, 2, 'nearest']
 11             [-1, 6]  1         0  ultralytics.nn.modules.Concat                [1]
 12                  -1  1    148224  ultralytics.nn.modules.C2f                   [384, 128, 1]
 13                  -1  1         0  torch.nn.modules.upsampling.Upsample         [None, 2, 'nearest']
 14             [-1, 4]  1         0  ultralytics.nn.modules.Concat                [1]
 15                  -1  1     37248  ultralytics.nn.modules.C2f                   [192, 64, 1]
 16                  -1  1     36992  ultralytics.nn.modules.Conv                  [64, 64, 3, 2]
 17            [-1, 12]  1         0  ultralytics.nn.modules.Concat                [1]
 18                  -1  1    123648  ultralytics.nn.modules.C2f                   [192, 128, 1]
 19                  -1  1    147712  ultralytics.nn.modules.Conv                  [128, 128, 3, 2]
 20             [-1, 9]  1         0  ultralytics.nn.modules.Concat                [1]
 21                  -1  1    493056  ultralytics.nn.modules.C2f                   [384, 256, 1]
 22        [15, 18, 21]  1    752872  ultralytics.nn.modules.Detect                [8, [64, 128, 256]]
YOLOv8n summary: 225 layers, 3012408 parameters, 3012392 gradients, 8.2 GFLOPs

optimizer: SGD(lr=0.01) with parameter groups 57 weight(decay=0.0), 64 weight(decay=0.0005), 63 bias
train: Scanning /Users/raehyeon/Desktop/programming-practice/Deep_Learning/YOLO_v8_street_work_v4/train/labels... 611 images, 2 backgrounds, 0 corrupt: 100%|â–ˆâ–ˆâ–ˆâ–ˆâ–ˆâ–ˆâ–ˆâ–ˆâ–ˆâ–ˆ| 611/611 [00:02<00:00, 266.13it/s]
…
